checkpoint/rnn_netx.pth (torch_old, 47805 bytes, 6 tensors)

rnn.weight_ih f4 [100, 9]
000000 d9 2d ff bc 55 fd 0f bf e8 54 22 3e 93 6e 63 bd
       -0.031149792 -0.5624593 0.15852702 -0.055525374
000010 ca 37 a6 be 00 bf a6 3e b8 e8 b3 bc 8b d6 5a 3f
       -0.3246444 0.32567596 -0.021961555 0.85483617
000020 e5 9f 03 3f 3f 3a 07 be f2 5a f1 be f6 2e 48 be
       0.51415855 -0.13205813 -0.47139698 -0.19549164
000030 9f 06 26 3e 6e fc a0 3e 8d 47 61 3d b9 b7 3f 3e
       0.16213463 0.3144259 0.054999877 0.18722428
000040 7f b5 b7 3d 97 23 58 3c 23 91 49 be da 45 92 be
       0.089701645 0.013192079 -0.19684272 -0.28568918
000050 ee 25 27 bc 5c a0 31 be 62 02 f2 bd 29 51 8e 3c
       -0.010201914 -0.17346328 -0.11816861 0.017372685
000060 e1 ee 94 3e d8 f8 b7 3e 02 4d d2 3e 10 9c ae be
       0.290885 0.3593204 0.41074377 -0.3410344
000070 25 d1 04 3e 87 6b e7 3d f7 01 45 3e 1b e8 82 bc
       0.12970407 0.11299806 0.19239031 -0.015979817
000080 ee cc 0e 3c 10 7d 13 3e bb 81 94 3e 42 3c 70 bd
       0.008715851 0.14403176 0.29005226 -0.058651216
000090 af 7a 69 3e 22 de c6 3d e1 23 45 bd 82 35 14 be
       0.22800706 0.09710337 -0.04812992 -0.14473537
0000a0 c7 63 aa 3e a1 d7 5d 3e 04 45 21 bd e0 b6 c8 bd
       0.3327925 0.21664287 -0.03937246 -0.09800506
0000b0 95 6a e0 be 52 85 a5 3e 1d 30 eb bd 57 96 ec 3d
       -0.43831316 0.32328278 -0.11483786 0.115521125
0000c0 0b 8a a7 3e d9 f7 68 3e fe fa 1d be be 41 a4 3d
       0.32722506 0.22750796 -0.15427777 0.08020352
0000d0 65 f9 3f 3d f6 0a 94 3d c2 47 bb bc b2 ba d2 3d
       0.0468687 0.07228653 -0.022861365 0.102895156
0000e0 cc 31 e7 3e 18 25 8c be 7f 85 ea bd 37 b0 0d bf
       0.4515518 -0.2737205 -0.114512436 -0.5534701
0000f0 7a 14 0f be 7b 93 0e be 73 16 5c be c6 55 79 3d
       -0.13972655 -0.13923447 -0.21492939 0.060872816
000100 ae d0 5e 3e 45 5e 44 be cf a1 91 bb de 25 33 3e
       0.21759292 -0.19176586 -0.004444338 0.17494914
000110 c3 4c 65 bd 83 3e a7 3e b3 d1 8d be e0 2b cc be
       -0.05598141 0.3266488 -0.2769905 -0.39877224
000120 d8 07 08 3e 7b 3d 36 be 3f 47 b1 be 77 f2 8e be
       0.13284242 -0.1779689 -0.3462467 -0.2791936
000130 9a 71 11 be 9a 9e 6f bc 26 1c 93 3e 6d 98 1e be
       -0.14203492 -0.014625216 0.28732413 -0.15487833
000140 87 08 e0 bd 2b 65 44 bd 77 ab 87 3c e4 64 31 3e
       -0.109391265 -0.047948044 0.016561253 0.17323643
000150 f7 6a ad 3c 19 b6 e5 bc c7 6e 1c be fc 08 87 3e
       0.021169169 -0.028040932 -0.15276633 0.26374042
000160 78 47 77 3e 52 d9 6c be 44 ee e6 3e 27 39 bf 3d
       0.24148357 -0.23129776 0.45103657 0.09337073
000170 7f 3d 50 3e af 16 33 3e 70 33 3a bd 34 e9 a1 3e
       0.20335959 0.17489122 -0.04545921 0.31623232
000180 88 cd ed 3d 62 12 c2 bd a1 8c c7 3d 2d e5 7d be
       0.116114676 -0.094761625 0.0974362 -0.24794455
000190 e8 7a 27 3e aa 1f 0c bf 73 d6 09 be 7e 2f 00 bf
       0.16355479 -0.54735816 -0.13460712 -0.5007247
0001a0 88 f1 d2 bd 94 54 09 3e f6 2b 9a 3d f3 24 40 bc
       -0.10299975 0.1341117 0.07527916 -0.011727559
0001b0 8a e1 66 be ff 44 e3 bd 6d 23 1c be ae d9 27 3f
       -0.22546974 -0.11097144 -0.15247889 0.6556653
0001c0 87 b4 85 bf 5e 74 43 3f f5 c7 24 bd 19 e1 0d 3d
       -1.0445718 0.7634944 -0.040229756 0.034638498
0001d0 54 ca ed 3d 65 cc d5 3e bf 87 6d 3d e7 b0 f6 bc
       0.11610857 0.41757503 0.057990786 -0.03011365
0001e0 3f 8e d2 3e 18 9f de 3c aa cb fd 3e 5e 08 d8 3a
       0.4112415 0.027175471 0.49569446 0.0016481986
0001f0 7c 1e c5 3c b6 40 62 3d d3 66 70 be 43 85 89 bc
       0.024062388 0.055237494 -0.23476724 -0.016787177
000200 31 1b 7b be 5f 17 a0 3e b9 b7 82 3f 72 9d 66 be
       -0.24522091 0.3126783 1.0212318 -0.22520998
000210 0d 86 3e 3e 26 79 14 3e 71 ea c6 3d 4a 84 57 bd
       0.18605824 0.1449934 0.09712685 -0.052616395
000220 3f c4 01 bc 4d 26 37 3e fe 75 b0 3d 97 d3 1c 3c
       -0.007920324 0.17885704 0.08616255 0.009571931
000230 04 46 05 3e 99 62 b0 bc 17 ee c7 3e a0 61 0c be
       0.1301499 -0.02153139 0.39048836 -0.13709116
000240 12 6e 33 bd 20 fa 12 bf 8e 50 7b be 1d 3e 07 3e
       -0.043806143 -0.5741291 -0.24542448 0.13207288
000250 13 7f d1 3e a4 bb f2 bb 8b 18 82 bc 8e 5d 16 3e
       0.40917262 -0.0074076224 -0.015880844 0.14684126
000260 89 f6 b3 3d c6 49 c3 3d 31 0b 1b 3e 6a 91 66 be
       0.08787257 0.095355555 0.15140988 -0.22516409
000270 b8 90 a2 3c ff c8 88 be 2a 47 48 3e a3 0b d0 be
       0.019844398 -0.26715848 0.19558397 -0.40633878
000280 e2 07 93 be ab d2 24 3e 74 99 a8 3d 3b 43 99 bb
       -0.28716952 0.16095988 0.08232394 -0.004677204
000290 db 2a ff 3d 87 36 24 3d 39 57 72 3d 8f f8 18 bd
       0.12459346 0.040091064 0.059165213 -0.03734642
0002a0 10 bf 46 be 33 9d a0 be a6 9c 3d be 13 a4 17 be
       -0.19408822 -0.31369933 -0.18516788 -0.14808683
0002b0 b7 5e 8a be c4 68 0e 3e d6 f6 21 bd 21 45 10 be
       -0.27025387 0.13907152 -0.03954204 -0.1408887
0002c0 1d eb 49 3d 50 70 35 3e 3f fb 30 3e c1 9f 8f bd
       0.049296487 0.17718625 0.17283343 -0.070128925
0002d0 f5 69 6d bd 9e 9e 60 3e 9c 64 af be 2b 8e 40 bf
       -0.057962377 0.21935508 -0.34256446 -0.7521693
0002e0 c3 ec 61 3f 4e 3e d5 be d6 87 82 bd 4e 38 7e bd
       0.88251895 -0.41649097 -0.06373565 -0.062065415
0002f0 06 44 8a 3e b8 ab e7 3c b1 4f 59 3d de b8 b6 3c
       0.27005023 0.028280124 0.053054515 0.022304948
000300 26 9c 21 3f 68 0d a4 3e aa ab c3 bf ed 89 2e be
       0.6312889 0.32041478 -1.5286763 -0.17044802
000310 88 69 26 bd d6 74 bf bd 90 79 39 bd 1e 54 47 bd
       -0.040627986 -0.093484566 -0.045281947 -0.048664205
000320 57 14 e7 be 0a e7 bf bc 68 2a 42 be db 4e 46 3e
       -0.45132706 -0.023425598 -0.18961489 0.19366018
000330 d7 83 e4 3d 8c 96 84 bd ad 44 8b 3e 1f 4d ac bc
       0.11157959 -0.06474027 0.27200833 -0.021032868
000340 f5 bf 08 3f d5 92 91 bd 3a 7f 21 3e d6 39 f0 be
       0.53417903 -0.07108084 0.1577119 -0.46919125
000350 2c f1 b6 3e cd 72 7d bd 2a c3 ca 3d 06 00 19 bd
       0.35730875 -0.06187706 0.09900506 -0.037353538
000360 ce 97 89 3d f4 5d 3c be 20 50 41 3d 64 73 54 bc
       0.067184076 -0.18395215 0.047195554 -0.012966964
000370 b6 c8 98 3d 5c 10 94 3d 43 09 2b bf d0 43 2e bd
       0.074601576 0.07229683 -0.6681101 -0.04254514
000380 91 6f 1c 3c 6b 3a 24 3e a8 14 7f be 1d fa 94 be
       0.009548084 0.1603791 -0.24910223 -0.2909707
000390 c9 f9 9b 3e ca e9 9a 3c eb f2 65 be 1c f9 b2 3e
       0.30464008 0.018910307 -0.22455947 0.3495568
0003a0 c6 c0 e2 3c 07 74 fb bd 14 57 72 bd 00 78 bf 3d
       0.027679812 -0.1227799 -0.059165075 0.0934906
0003b0 c1 0e d1 be ed f9 2d 3d 59 45 64 bc b0 b1 21 be
       -0.4083157 0.042474676 -0.013932549 -0.15790439
0003c0 bb a1 a8 bd ef f8 7c 3d 65 20 af 3c 33 0c 4b 3e
       -0.08233973 0.06176084 0.021377752 0.19828872
0003d0 61 41 8e be 9d 4c 0e 3e 1a e4 b2 3d d8 95 ad bd
       -0.27784255 0.13896413 0.08734913 -0.08475846
0003e0 09 ee 9e 3e 53 eb 8d be 4d 09 db 3b cc 64 08 3e
       0.3104098 -0.277186 0.0066844583 0.13319701
0003f0 4f 64 e9 bd 1f 93 11 be 63 98 9b 3e fa 3e 59 3d
       -0.113960855 -0.14216278 0.303897 0.053038575

rnn.weight_hh f4 [100, 100]
000000 e4 fd 80 3d 64 90 36 be 67 97 9b bc b8 3a 33 bd
       0.06298426 -0.17828518 -0.018993093 -0.04375717
000010 ea f6 22 bd 8f a6 34 be c0 a9 82 3d fe 2d 05 bf
       -0.039786257 -0.17641662 0.063800335 -0.52023304
000020 c1 6c a5 be c1 c5 10 be a7 d3 11 3d bf 4c 51 3c
       -0.32309535 -0.14137937 0.035602238 0.012774645
000030 43 61 84 3e 25 4a 15 bd 74 9b 9f bd 1d e0 fd 3c
       0.25855455 -0.036447663 -0.07793322 0.030990655
000040 0b cd 21 3d de 41 06 3e 4f dc d1 3c 41 b9 ea 3c
       0.039502185 0.13111064 0.025617747 0.02865279
000050 fb 0c b3 bd a7 6d 0d bd f9 29 bb 3d 84 3e 3f bd
       -0.0874271 -0.0345284 0.09138865 -0.04669048
000060 21 b3 b2 3a b3 0f a2 bd 6a 48 cc bd 44 57 78 bd
       0.0013633707 -0.07913151 -0.099747494 -0.060630098
000070 2e 36 99 3c 86 dc 8f bd 3e 33 02 be 3e 06 29 bd
       0.018702593 -0.070244834 -0.1271486 -0.04126572
000080 53 57 1b bc 34 99 4e 3d 54 c3 d1 bc e2 82 a1 3c
       -0.009481269 0.050439075 -0.025605835 0.01971573
000090 aa e5 b4 bd 70 68 4f bd 1c f8 09 ba 39 e2 24 bc
       -0.088328674 -0.05063671 -0.00052631064 -0.010063701
0000a0 df 9d ac bd f6 a4 ca bd 8b 5b 19 be b7 2e 21 3d
       -0.08428549 -0.09894745 -0.14976327 0.03935119
0000b0 78 76 24 be ab 43 25 bc ef 59 99 3d 2f a3 17 bd
       -0.16060817 -0.010086934 0.074878566 -0.03702086
0000c0 fe 44 db 3d 66 3d c3 bd 66 96 e4 3c 78 e0 29 3e
       0.107065186 -0.09533195 0.027903747 0.16589534
0000d0 dd c2 60 bd 01 69 0e bd 89 a8 4d bd c5 09 37 bd
       -0.054873336 -0.03476811 -0.050209556 -0.04468705
0000e0 7a 7c a5 bd 16 96 ef bc 11 c8 a1 bd 04 64 13 3e
       -0.08080383 -0.029246371 -0.07899488 0.14393622
0000f0 b3 5f 07 3d 8c 9a ec bd 89 d9 48 3e d0 30 a0 3d
       0.03305025 -0.11552915 0.19614233 0.0782181
000100 32 1c f3 bd 23 c0 b6 bd bf c9 ed bc 04 4e 06 3d
       -0.11870612 -0.08923366 -0.029026864 0.032789245
000110 b5 d1 ca bc 7d 13 0c bb 51 2a 9c 3d 11 b8 86 bd
       -0.0247582 -0.002137392 0.07625259 -0.06578077
000120 38 4e 34 be d9 cf b5 bd ba d4 04 3d 7f a0 4c be
       -0.17607963 -0.088775344 0.032429434 -0.199831
000130 86 2f 51 bd e7 99 ae be 94 e7 1e bd db 68 a1 3c
       -0.051070713 -0.34101793 -0.03879507 0.01970332
000140 7b 26 ad bd d0 57 52 bd 15 4e 6a bd d7 ca 9e bd
       -0.08454605 -0.051353276 -0.05720337 -0.077535324
000150 d8 dc d2 bc 38 95 ce be e9 87 46 3d c8 4b 6b 3d
       -0.025740072 -0.4034822 0.048469458 0.057445318
000160 12 6f 16 bd c9 3f 45 bd b0 7c c7 3e 25 89 d1 3c
       -0.03672702 -0.048156533 0.38962317 0.02557809
000170 b9 95 36 bd 69 85 cd bd 98 c4 18 3e 2a 65 26 3c
       -0.04457638 -0.100352116 0.14918745 0.010155955
000180 95 b3 2b be 8f fe a2 bd 8b 1e 0e 3e 85 ee a6 3d
       -0.16767724 -0.079587094 0.13878839 0.08150963
000190 c5 6b 17 3e 50 cf 1e 3e f4 f2 2a 3e d7 ac 4a be
       0.14787205 0.15508771 0.16694242 -0.19792496
0001a0 0c a0 4f 3e f6 f2 f9 3d 2c a5 c2 bd 50 4c 35 be
       0.20275897 0.12204544 -0.0950416 -0.17704892
0001b0 92 6b 1b 3e c6 e6 6a bc 2d ce 08 be 9c c3 e3 3d
       0.15177754 -0.014337247 -0.133599 0.11121294
0001c0 7f 77 48 be 81 b2 ee 3b 84 15 1c 3e b7 65 6d 3d
       -0.19576834 0.007284463 0.15242583 0.05795833
0001d0 d0 86 e8 3d 25 73 f6 bd 34 9a c3 3d 7b 38 de 3c
       0.113538384 -0.12033681 0.09550896 0.027126541
0001e0 9e 16 11 be a3 83 83 3a 54 0c 83 3d 58 fd 86 be
       -0.14168784 0.0010033738 0.06398836 -0.2636516
0001f0 06 78 8c bd 56 af 56 3d b6 9c 93 3d dc 4e b9 3a
       -0.0685883 0.052413307 0.072076246 0.0014137882
000200 18 79 43 bd fa 3e f9 bd e0 a6 a3 bd 4e 19 07 be
       -0.047722906 -0.12170215 -0.07990813 -0.13193247
000210 ed b1 84 bd a0 25 49 bd dd 75 b6 3d 8a 33 21 bb
       -0.06479249 -0.049108148 0.089091994 -0.002459737
000220 cc 4a 05 be 74 94 02 be ac 29 47 be 0a 7a 95 bd
       -0.13016814 -0.12751943 -0.1944949 -0.07298668
000230 e2 38 f0 3c b9 68 d1 bd 16 40 66 be 5b 91 0a 3e
       0.029323999 -0.102250524 -0.22485384 0.13532011
000240 7c c9 0e be 97 69 47 3d 24 5f b5 bd 55 4d 1e 3d
       -0.13944048 0.048684683 -0.08856037 0.03864797
000250 64 96 1b 3d 2c e2 88 3d 7d ec f6 3c 9e 9d 7e 3e
       0.03798522 0.06683764 0.030142063 0.24864814
000260 58 38 18 3d ec 85 83 be 69 03 74 3d 62 e8 04 be
       0.03716311 -0.25688112 0.059573565 -0.12979272
000270 9d 10 43 3c 1b db 5d be 2f 45 20 be c8 1c 86 bd
       0.011905816 -0.21665613 -0.15651391 -0.06548458
000280 5e 64 39 3e c9 e0 ce 39 ab e2 88 bc a2 ee 16 be
       0.18104693 0.0003945886 -0.016709646 -0.14739469
000290 8b 09 28 be f9 f4 29 3e cd 3b 8b 3e f8 1a ac 3d
       -0.1640989 0.16597356 0.27194062 0.084035814
0002a0 09 9e 72 bc ce 4f 4b bc 2b d7 0b be 61 dc 88 3e
       -0.014808186 -0.012409164 -0.13656299 0.26730636
0002b0 ff 82 02 be c9 3e bd bd 4a 28 15 be 16 cb 64 bd
       -0.12745284 -0.09240491 -0.1456615 -0.05585774
0002c0 47 81 b6 3c a6 c9 ee bc a5 b0 06 be 4f 40 4e be
       0.022278441 -0.029148888 -0.13153322 -0.2014172
0002d0 f6 82 a7 3d ba e1 e7 bc 93 18 8d be 26 5f 26 bc
       0.08179276 -0.028305877 -0.2755781 -0.010154521
0002e0 a8 eb 4b 3e 48 11 d7 3c 2a 6f 24 be ee 1b 57 3e
       0.19914114 0.026253358 -0.1605803 0.21006748
0002f0 fc 9a 64 be a9 ba 3b be c9 fc 12 bd a9 2a 3b 3e
       -0.22324747 -0.18332924 -0.035885606 0.18277992
000300 6e 60 b2 bd 61 04 70 3d 87 37 4c 3e 99 ec 72 3d
       -0.08709799 0.058597926 0.19943057 0.05930767
000310 0c 11 1f 3e 18 65 7a 3d 27 bd 19 3d 94 ef 20 bd
       0.15533847 0.061131567 0.037533905 -0.03929098
000320 5e 70 9b 3c 05 f2 cb 3c 84 bd 43 3d 1e 37 f1 3e
       0.01897448 0.024895677 0.047788158 0.47112364
000330 03 9e 5e bd 85 a8 b4 be 1c 71 a7 be 6f 1f 88 be
       -0.05434991 -0.3528482 -0.32703483 -0.26586482
000340 ac 61 b1 3d 93 30 25 3c 2a 43 07 3e a7 c6 55 3e
       0.086612076 0.010082382 0.13209215 0.20876561
000350 45 5a f7 bb 99 de 11 be 96 cf be be 1b 38 b6 3c
       -0.0075486028 -0.1424507 -0.3726775 0.02224355
000360 12 93 60 bd 50 4e 82 bd 9c c7 b1 bc a8 aa 57 3e
       -0.054827757 -0.06362593 -0.021701626 0.21061194
000370 63 16 b5 3e 03 e0 29 3e d7 a8 14 be aa 23 a0 3e
       0.35368642 0.1658936 -0.14517532 0.3127721
000380 b2 87 f4 bd 88 95 da bd fc 4c 9a bd 1f ab 77 3d
       -0.11939944 -0.10673052 -0.07534215 0.06046593
000390 24 40 88 bd 2e 6f b3 3e 71 1f b0 3d 53 ab 3f be
       -0.06652859 0.3504576 0.08599747 -0.18717699
0003a0 7e c6 11 be 65 02 04 3e af 74 27 be 1c 4e 4c 3d
       -0.14235875 0.12891538 -0.16353105 0.04987918
0003b0 48 c6 51 3e 4a bb 99 3b 9f fe c8 3d a6 35 0f 3e
       0.20485795 0.004691516 0.0981419 0.13985309
0003c0 bd 6d 72 3e 68 c0 30 3d d7 1f 08 be 35 10 04 3d
       0.23674674 0.043152243 -0.13293396 0.03224202
0003d0 36 c7 49 bf b8 a5 b6 bd 8c aa 3d 3e 55 7d c3 be
       -0.78819597 -0.08918327 0.1852209 -0.38181558
0003e0 ca 5b 47 3d 98 c2 87 3c 8f 87 1e be 6f f6 51 3e
       0.04867152 0.016572282 -0.15481399 0.20504163
0003f0 97 a9 98 bd 25 3f 30 be aa 38 4f bd 31 ee af 3c
       -0.07454222 -0.17211588 -0.05059115 0.021475883

rnn.bias_ih f4 [100]
000000 71 87 8c 3e 2b 36 91 3d 78 ba 2f 3e 3f 2f 93 be
       0.27447084 0.0709041 0.17160976 -0.28746983
000010 90 94 17 be aa 88 59 be 0c d7 fd 3d ca 76 ac bc
       -0.14802766 -0.2124354 0.123945326 -0.021052737
000020 5c 70 87 bd 68 7b 3f be 5f d2 1a 3e 2c 75 5e 3d
       -0.06613228 -0.1869942 0.15119313 0.054310963
000030 bc ad d3 3d 79 ff c8 3e a8 09 88 bd 21 0a 24 be
       0.103358716 0.3925741 -0.06642467 -0.16019489
000040 3a 2d c3 3e 9f 89 bb bd 66 0c 9a 3b 89 6d ec bd
       0.38120443 -0.091571085 0.004701185 -0.1154433
000050 c8 fd 07 bd 7d 65 2d 3e c1 e8 5e 3e 64 5f 23 3d
       -0.03320101 0.16933246 0.21768476 0.039885893
000060 e5 66 81 3d a6 0f 53 bc dc 31 fd 3d 29 51 1d 3e
       0.06318454 -0.012882149 0.123630255 0.15362991
000070 2f 4f 73 be d8 3c 09 be c9 90 79 bd be c2 a3 bd
       -0.23760675 -0.13402116 -0.060929094 -0.079961285
000080 3f c2 4a 3e ee ca 06 3e f0 fb ff 3d 9f d2 fe bb
       0.19800662 0.13163349 0.12499225 -0.007776573
000090 13 14 2b be 26 9f 93 3c a9 8c 12 be 80 eb 68 bd
       -0.16706876 0.018020224 -0.1431147 -0.056865215
0000a0 46 4d 20 be 3c 26 98 3c 89 71 9d 3e 28 f7 31 bd
       -0.15654477 0.01857292 0.30750683 -0.043448597
0000b0 f4 47 63 3e 76 3e 05 3d 1b ce 35 bd 95 a1 f0 bc
       0.22195417 0.03253027 -0.04438601 -0.029373923
0000c0 73 93 a3 3d 7d ac f7 3c 6a d8 d5 3d 43 d0 cf bd
       0.07987108 0.030233616 0.10441668 -0.10147145
0000d0 11 0b 23 3d 41 a1 f8 bd 44 32 a5 bd 5f 87 29 be
       0.039805476 -0.12140132 -0.08066228 -0.16555546
0000e0 b5 44 73 3d fa bc 9a bc b7 9c 1b 3d f5 b1 86 bc
       0.059391696 -0.01888894 0.03799125 -0.016442278
0000f0 f8 96 6e 3d 13 db a1 bc e4 67 d0 ba 2d d2 d9 bd
       0.058249444 -0.019757783 -0.0015900102 -0.10635791
000100 c5 d7 0e bd 2f e5 55 3e c9 11 01 3e 9c ef d9 3d
       -0.034873743 0.20888208 0.12604441 0.10641405
000110 cc 19 93 bc 1d 2a e9 3d 0b cd 38 bd f4 93 9a bd
       -0.017956637 0.113849856 -0.04511742 -0.07547751
000120 1c 89 91 3d e8 08 9b 3d 75 ca 67 3d a4 e5 55 bd
       0.0710623 0.07570058 0.056589562 -0.052220955
000130 d9 b2 e8 bd cf 4f dd 3d 4a c1 79 3e 1a 3f de 3d
       -0.113622375 0.10806238 0.2439014 0.108518794
000140 76 ba 85 bd 9c b0 9d 3d 97 96 35 3e 81 80 76 3d
       -0.06529705 0.07699701 0.17733227 0.060181145
000150 3b 97 b7 3d b6 0e 9a 3d 4c 51 f4 3d 00 76 4f 3d
       0.08964392 0.07522337 0.11929569 0.050649643
000160 9b 47 8f 3d d2 be d2 bd 12 c7 5e 3c 2d f6 b3 bd
       0.069960795 -0.10290302 0.013597267 -0.08787189
000170 95 53 43 3e 1f 4d d2 3d 85 73 4b 3d 4f 99 0d 3e
       0.19074853 0.10268616 0.049670715 0.13828014
000180 2f 05 62 bd 9e c5 58 bd bc 4f 1d 3d b4 de 33 bd
       -0.055180725 -0.052922837 0.03840612 -0.043913558

rnn.bias_hh f4 [100]
000000 d7 23 9b 3e 0f 97 e2 3d 17 f3 ca 3d d2 2c 4c be
       0.3030078 0.110639684 0.09909647 -0.19938973
000010 ec e3 bf bc 8a 89 85 be aa 1f d6 3d eb 50 0b be
       -0.023424111 -0.26081496 0.10455258 -0.13605087
000020 ac e2 1b 3d e4 16 31 bd 25 a4 c1 3d 99 1c 98 bc
       0.038057968 -0.04323472 0.09455136 -0.018568324
000030 34 ac 3a 3e 23 64 98 3e 23 5d af bc 50 dd 40 bd
       0.18229753 0.29763898 -0.021406716 -0.04708606
000040 4c 52 8f 3e 92 05 b5 3c 44 53 a0 3c bd 0c a9 3c
       0.27992475 0.022097383 0.019570954 0.020635957
000050 42 c7 22 be f3 f5 20 3e d1 fa cb 3e e7 89 15 be
       -0.15896323 0.15718822 0.39839795 -0.14603387
000060 17 bb f2 3d 02 11 ea 3b 57 2c 8f 3d e7 1f 36 3e
       0.11852091 0.007143141 0.06990879 0.17785607
000070 83 c4 55 be a5 72 71 be ad f5 e6 bd 52 d4 53 3b
       -0.20875745 -0.2357889 -0.11277328 0.0032322598
000080 ef 03 12 3e b2 2b 08 3e 51 01 92 3d cd 02 03 be
       0.14259313 0.13297918 0.07129157 -0.12794037
000090 b5 e6 db 3b 1e 7f 50 bc 8d ee 51 be 1b 16 47 3c
       0.006710852 -0.01272562 -0.20501156 0.012151266
0000a0 04 d5 2f be 17 f9 7f bd 09 9a bf 3e ce d7 c7 bd
       -0.17171103 -0.06249341 0.37422207 -0.09757958
0000b0 6e 66 37 3e 73 56 e3 3d d3 5e 9d 3c 60 77 b7 bd
       0.17910168 0.11100473 0.019210255 -0.08958316
0000c0 98 f9 29 3d b1 f4 09 be 54 fb 32 3e 85 d9 d3 bd
       0.041497797 -0.13472249 0.17478687 -0.10344223
0000d0 14 15 95 bd d3 a1 dd bd 1e bd de bd 3c d9 05 be
       -0.07279411 -0.10821881 -0.10875915 -0.1307115
0000e0 ab 58 47 bd 4e f3 a5 bd 22 e0 04 3e 85 ea 09 be
       -0.048668545 -0.08103047 0.12976125 -0.13468368
0000f0 1a e3 54 bc db d3 ca bc 72 9d ff 3c d3 ad a1 bd
       -0.012993598 -0.024759224 0.031203005 -0.078944825
000100 f4 b4 08 be cf ba 49 3e 07 4f 48 3e 3a d9 6a 3e
       -0.13350278 0.19700168 0.19561397 0.22934428
000110 ca 9a 62 3d f9 27 e6 3c 49 d3 b3 3c c4 80 51 3d
       0.0553234 0.028095232 0.021951335 0.05114819
000120 2a 88 08 3d 21 0f 02 3c c0 29 a7 bd 01 57 c9 bd
       0.03333298 0.007938177 -0.0816226 -0.09831048
000130 5b 46 f2 bd 7a 1c 03 3e 35 74 07 3e bf 04 3e bd
       -0.118298255 0.12803832 0.13227923 -0.046391245
000140 20 85 78 bd a5 41 a9 3b ff ad 2f 3e 57 c9 01 3e
       -0.060673833 0.005165296 0.17156218 0.12674461
000150 76 4c 5a 3e 10 42 9e bd c5 ba 77 3e 9c 20 34 3e
       0.2131823 -0.07727444 0.2419234 0.17590564
000160 d0 ed 1a bd c9 37 1b be f3 a6 94 bd 76 6c 0d be
       -0.037824452 -0.15157999 -0.072584055 -0.13810906
000170 99 08 2d 3e d8 7e 5b 3d b2 c4 88 3d ed 1f 53 3d
       0.16897811 0.053587765 0.06678142 0.05154412
000180 db e6 79 3d 8d 7a 76 bd 82 83 f3 bd b5 aa b9 bd
       0.061011177 -0.060175467 -0.118903175 -0.09065763

FC.weight f4 [6, 100]
000000 96 97 5a be d1 4c 53 be da c8 8b 3e b3 53 db 3e
       -0.21346888 -0.20634772 0.27301675 0.42837295
000010 9b d0 4e be 81 f4 9c be 81 2c 17 3e 05 d6 88 3e
       -0.20196764 -0.30655292 0.1476307 0.26725784
000020 25 e2 f1 be ed 33 b4 3e ff c8 13 bf f8 4b 14 bd
       -0.47242847 0.35195866 -0.5772857 -0.036205262
000030 da cd 93 3e 83 36 62 be dd d5 4f be 8f c6 e3 3e
       0.2886799 -0.22091107 -0.20296426 0.44487426
000040 22 9a cd be 24 9a 05 bf 5f a3 3e bf f0 0b 23 3f
       -0.40156657 -0.52188325 -0.74468035 0.6369009
000050 43 6f 20 3f 9f 02 86 3e 27 b3 15 bf f1 f9 ac 3e
       0.6266977 0.26173875 -0.5847649 0.3378444
000060 6b 7f 26 bd 87 66 b3 bc 82 40 17 bf 65 95 fe 3e
       -0.04064886 -0.021899475 -0.59082806 0.49723354
000070 b5 b3 9d 3e 73 a0 92 3e 9f ff 78 3f d8 31 1a 3e
       0.30801168 0.28638038 0.97265047 0.15058076
000080 67 22 5f be 06 a7 dc be 11 26 21 be 64 a4 a3 3d
       -0.21790467 -0.4309618 -0.15737177 0.079903394
000090 bf 0a e3 3e ad 09 01 3f 7d b4 2c 3e ae 9b 94 bf
       0.44344136 0.5040539 0.16865726 -1.161001
0000a0 25 98 ca 3e 9e 0c 51 3f 34 39 ab be 45 3d d4 be
       0.39569202 0.8165988 -0.3344208 -0.41452995
0000b0 64 29 26 be 7a 6c 79 be f9 31 c5 3e e7 03 2f 3f
       -0.16226727 -0.24357787 0.3851469 0.6836533
0000c0 23 0f a8 be 04 6e 20 3d ef c8 12 3e bd 2d ef be
       -0.32824048 0.03916742 0.14334463 -0.46714583
0000d0 41 71 a2 bf f2 28 49 be d3 85 67 be ea fb 25 3d
       -1.2690812 -0.19644526 -0.22609644 0.040523447
0000e0 6a eb 4f bf 4a 20 b9 be 15 d6 8d bf 2e 9b 82 3e
       -0.8121859 -0.36157447 -1.1080958 0.25509018
0000f0 41 c9 bd 3e 69 dd 02 bf a8 42 29 3d eb 80 45 3f
       0.37067607 -0.51119095 0.041323334 0.7714984
000100 56 07 01 bf 47 0c 86 3e a1 95 11 bf d9 fe 99 bd
       -0.5040182 0.26181242 -0.5686894 -0.075193115
000110 c7 ad 8e 3e ae d4 e9 3d bf ae 60 3e c9 56 34 3f
       0.27866957 0.114175186 0.2194166 0.70444924
000120 a7 18 a3 3e 10 0a 31 bc 3b 0a 8b 3e 24 63 4b bf
       0.31854746 -0.010805622 0.27156243 -0.7944815
000130 e4 bb ea be ec 2c a8 bf fa d0 6d be b7 15 e1 3e
       -0.45846474 -1.3138709 -0.2322425 0.4396188
000140 bb 96 80 3e 9a 5f 30 3e b7 52 f3 3b b1 5f 51 3f
       0.25114998 0.17223969 0.007425632 0.8178664
000150 1b 84 ee be 86 c5 aa 3e fe 4d 8e bf c3 31 27 bf
       -0.46585163 0.33353823 -1.1117551 -0.65310305
000160 ce 4c 16 3f 40 a9 1c 3f 47 46 ca be 94 73 2e 3f
       0.58710945 0.61195755 -0.39506742 0.6814511
000170 fd 43 9c 3e b7 d1 d9 be ca 59 33 bf b2 fe 70 be
       0.3052062 -0.42542812 -0.7005888 -0.23534659
000180 d9 83 c0 3e 7d c4 1c 3f 2d b8 57 be 37 1a 9b bf
       0.37600592 0.6123732 -0.21066351 -1.2117375
000190 0b e6 d4 3e 59 c9 13 3e 2a 70 3e 3e 60 a8 69 be
       0.4158176 0.14432277 0.18597475 -0.22818136
0001a0 f4 9d 37 bf 79 56 9c 3e df b0 fe 3e a8 32 41 3e
       -0.7172539 0.30534723 0.49744317 0.1886698
0001b0 c5 9d 2c 3f 5c fe b2 3e 8a bb cc 3e ba d8 48 be
       0.6742824 0.34959686 0.3998683 -0.19613925
0001c0 7e cd 15 bf eb a0 9e 3b 4c 4d f3 bd e5 f6 f3 bf
       -0.5851668 0.0048409603 -0.118799776 -1.9059721
0001d0 b4 1f 10 3e 61 eb 6b be 5a 23 c5 3f 3a b0 21 bf
       0.14074594 -0.23039009 1.5401413 -0.63159525
0001e0 b1 cf 14 3f 72 08 f6 3e 0e 92 27 3e f7 a7 e7 3e
       0.5812941 0.48053318 0.16364309 0.45245335
0001f0 9b 90 af 3d 21 06 f6 be a6 7d 8d be 85 f9 97 3d
       0.08572503 -0.4805155 -0.27634925 0.07420639
000200 27 7f 91 be 9f 59 a3 bd 5c 54 66 bf 19 1e d7 3d
       -0.28417322 -0.07976078 -0.8997247 0.105037875
000210 42 99 6f 3e b5 9b df 3f 2a 54 98 bf 0e 4e 98 3e
       0.23398307 1.7469393 -1.1900685 0.2974705
000220 02 17 3d bf 60 79 67 bf c1 d5 d2 be d8 85 7c 3e
       -0.7386323 -0.9041958 -0.41178706 0.24660432
000230 1a 18 54 3e d5 65 d8 3e 67 20 3c bf 43 b9 b8 3e
       0.20712319 0.42265192 -0.7348694 0.36078843
000240 2a 57 c4 3e 11 96 14 bf cd 60 64 be 8e ec 2e be
       0.3834775 -0.58041483 -0.22302552 -0.17082426
000250 1f 19 eb be 5e 03 77 3f eb 1f 14 3f f8 20 c7 3d
       -0.45917603 0.9648951 0.578612 0.09723085
000260 be 02 43 be a7 bc 16 be 19 68 01 3e 39 31 57 be
       -0.19044015 -0.14720403 0.12637366 -0.2101487
000270 e8 1b e5 bf b5 7e ff 3e 82 05 1e 3f 56 7a 34 be
       -1.7899141 0.49901357 0.61727154 -0.17624792
000280 66 68 f1 ba 0a 13 8c be 3e 72 8e 3d c8 14 46 bf
       -0.0018417954 -0.27358276 0.06955384 -0.7737546
000290 a8 30 a6 3e ae 27 c6 be 8c f1 07 3f bb 59 e2 be
       0.32458997 -0.38702148 0.53102946 -0.44209084
0002a0 10 26 09 bf 85 83 8d 3f 44 f3 d2 3e 36 b7 54 bf
       -0.53573704 1.1055762 0.41201222 -0.8309206
0002b0 09 19 0a bd 22 cc 85 be 74 f6 a4 be ab 10 4c 3f
       -0.03371528 -0.26132303 -0.3221928 0.79712933
0002c0 48 6d 6f be 63 24 26 3f 4b 60 2f bd 0f 30 0e 3f
       -0.23381531 0.6489927 -0.04281644 0.5554208
0002d0 68 13 f9 be 34 5c b4 3e 2b 02 f4 3e 1e 25 9c bf
       -0.48647618 0.35226595 0.47657904 -1.2198827
0002e0 46 f4 f8 3d 74 a0 44 3f 98 1a 58 3e 9a 2f a8 3e
       0.121559665 0.7680733 0.21103895 0.32848817
0002f0 36 fd 00 bf 13 9b 63 bf 7f 4d 1f bf ee e7 c3 3c
       -0.5038637 -0.889085 -0.62227625 0.023914304
000300 a7 ea fb bc ab 2e cf 3d f9 d0 2f 3f cd c6 2d bf
       -0.03075154 0.10116323 0.6867824 -0.6788147
000310 40 1f 1e bf 62 df f2 be 2f 5a 4d be 14 24 5e 3f
       -0.61766434 -0.47436053 -0.20053934 0.867738
000320 c8 c8 2b 3e 7f b9 3e 3e 33 c6 18 bf 43 fb 87 be
       0.1677581 0.18625449 -0.5967743 -0.26558885
000330 c1 ae 07 3f f1 ac e3 3e b4 6f e4 be 85 99 ad 3e
       0.5300103 0.4446788 -0.44616473 0.3390619
000340 e2 aa ee be b2 f6 9d be 97 33 90 be 4f 11 ca be
       -0.46614748 -0.30852276 -0.2816436 -0.3946633
000350 ca 93 9a 3e 4e 8e a2 3d f3 59 b6 3e 1d 9a e9 3e
       0.3019088 0.07937299 0.356155 0.45625392
000360 97 b8 48 3e 46 3e 39 3e 04 e4 9e bf 51 35 6c be
       0.19601665 0.18090162 -1.2413335 -0.23067214
000370 2c 2a 15 be d9 33 22 bf 81 0f ea 3d 23 0e 87 bf
       -0.14566869 -0.63360363 0.114287384 -1.0551189
000380 a3 b9 44 be 84 0f 2f bd 3b 08 40 3e 7c da 20 bf
       -0.1921144 -0.042739406 0.1875314 -0.6283338
000390 60 8c 7a bd ca 3f 66 bd d6 73 99 3e fd a9 cd 3c
       -0.06116903 -0.056213178 0.29971188 0.02510547
0003a0 64 cc fe 3c 7c 3e 82 bf 66 ae 68 3e dc dc 0f 3e
       0.03110332 -1.0175319 0.22722778 0.14049095
0003b0 77 72 97 3e 7d 2f 49 3e 04 82 22 be cb 2e b0 3e
       0.29579517 0.19647022 -0.1586991 0.344107
0003c0 d0 51 6f be cb 72 fd 3d 58 d2 8b be c5 d7 6b be
       -0.23371053 0.12375411 -0.27308917 -0.23031528
0003d0 03 8c 49 bd 77 05 d8 3e 69 61 cf bc ef a4 a5 be
       -0.04920579 0.4219167 -0.025315003 -0.32352397
0003e0 43 d6 ae 3e d7 06 a6 bf 1f e0 52 3e b4 f4 10 3e
       0.34147844 -1.2970837 0.20593308 0.14155847
0003f0 a1 da 2d 3c e8 55 8e 3e 56 27 0c bf 9c 3a 83 3e
       0.010611207 0.27799916 -0.5474752 0.25630653

FC.bias f4 [6]
000000 d0 3c 56 be b2 f2 80 3e 9d 28 20 be 64 c5 90 bd
       -0.20921636 0.25185162 -0.15640493 -0.07068899
000010 91 91 fc 3d 75 c5 22 bc
       0.12332452 -0.009934773
